model.tflite (tflite, 8496 bytes, 8 tensors)

arith.constant f4 [64, 6]
0	0xbdf33fd3	-0.11877408
1	0x3eb209ca	0.34773093
2	0x3eae8173	0.34083137
3	0xbe7269ac	-0.23673123
4	0x3e81cbfa	0.25350934
5	0x3ea53a8c	0.3227123
6	0x3e4019bb	0.18759815
7	0xbe8d3fa3	-0.27587613
8	0x3dd2661d	0.10273383
9	0xbe36d5bb	-0.17854969
10	0xbe5b19d6	-0.21396574
11	0xbe8f52a3	-0.27992734
12	0x3e551ba9	0.20811333
13	0x3e0fcdb4	0.14043313
14	0x3d347789	0.04405931
15	0x3db187be	0.08668469
16	0x3e03ed21	0.12883426
17	0x3db399d0	0.08769572
18	0xbba1ed02	-0.0049415836
19	0xbe54c88b	-0.20779626
20	0x3e5e7ecf	0.21728061
21	0xbea0236f	-0.31277034
22	0x3d37dbc4	0.04488732
23	0xbb136ce1	-0.0022495317
24	0x3ebfe94d	0.37482682
25	0xbd7abdb7	-0.061216082
26	0x3ea448d3	0.3208681
27	0x3e2cea25	0.16886194
28	0x3e4b6bb9	0.19865312
29	0x3e63a8b0	0.22232318
30	0xbd3535a0	-0.044240594
31	0xbdcf0e46	-0.10110144
32	0xbc10ab20	-0.008829862
33	0xbd989fc6	-0.07452349
34	0xbe262c20	-0.1622777
35	0xbe7f8dce	-0.24956438
36	0xbdce0f97	-0.10061567
37	0xbde1be63	-0.110226415
38	0x3ebdb498	0.37051845
39	0x3e316ff0	0.17327857
40	0x3eb9ec02	0.36312872
41	0x3e51a7f7	0.2047423
42	0xbd664724	-0.05622019
43	0xbe21be23	-0.15795188
44	0x3bd1a0c0	0.0063973367
45	0xbe2f9cab	-0.17149608
46	0xbe00943a	-0.12556544
47	0x3b8a5dc0	0.0042226017
48	0xbe26727b	-0.16254608
49	0xbe685d3c	-0.22691816
50	0x3df097c0	0.11747694
51	0x3bf3f2c0	0.0074447095
52	0xbdfc1dec	-0.12310395
53	0xbd79f93c	-0.061028704
54	0xbd92c968	-0.071673214
55	0x3e1e3e33	0.15453415
56	0xbde23d55	-0.110468544
57	0xbdcc6130	-0.099794745
58	0xbe96958b	-0.29410967
59	0xbe5cb750	-0.21554303
60	0x3e8d5ec5	0.27611366
61	0x3d798a89	0.060923133
62	0xbdc1ec65	-0.09468917
63	0x3e691e0d	0.2276537
64	0x3e485c09	0.19566359
65	0xbdef68dd	-0.11689923
66	0x3e0ca672	0.13735369
67	0x3e4806bc	0.19533819
68	0xbd9afa83	-0.075673126
69	0xbe9f9ed9	-0.3117588
70	0xbdc106df	-0.09425139
71	0xbca065fd	-0.019579882
72	0xbe8ec181	-0.27882007
73	0x3dd6a61c	0.104809016
74	0x3bfc5e53	0.007701674
75	0xbdf518ec	-0.11967644
76	0x3de860ef	0.113466136
77	0xbb69b150	-0.0035658665
78	0xba97f817	-0.0011594322
79	0x3bac7673	0.0052631437
80	0x3db8bea2	0.09020735
81	0xbe8d6208	-0.27613854
82	0xbcf9c111	-0.030487569
83	0xbe2a73d6	-0.1664575
84	0x3c63cf80	0.013904452
85	0xbe3617e8	-0.17782557
86	0xbe73b68e	-0.23800108
87	0xbe2b51cf	-0.16730426
88	0x3e0911b2	0.13385656
89	0xbd4a9548	-0.049458772
90	0xbdb9efe8	-0.090789616
91	0xbe250b66	-0.1611763
92	0xbdf31720	-0.11869645
93	0x3dfdf738	0.12400669
94	0x3e0cfc6a	0.13768163
95	0xbe22142c	-0.15828007
96	0xbcc04947	-0.023472441
97	0x3d6edbbe	0.05831503
98	0xbd59ee42	-0.053205736
99	0x3eaf2f39	0.34215716
100	0x3d8e0d15	0.06936089
101	0x3e9b755d	0.3036298
102	0x3eba02fe	0.36330408
103	0xbac43fe2	-0.0014972652
104	0x3e9c10bb	0.30481514
105	0x3e5049b3	0.20340614
106	0xbd739f38	-0.059478015
107	0x3ea50e9e	0.32237715
108	0xbcc64c7d	-0.024206394
109	0xbe602c3a	-0.21891871
110	0xbdd9ebfc	-0.106407136
111	0x3ace8b6a	0.0015758101
112	0x3e0e3db5	0.13890727
113	0x3a53bde0	0.0008077305
114	0x3e25195c	0.16122955
115	0x3d07d6b5	0.033163745
116	0xbdb41ac6	-0.08794169
117	0xbe6a41ae	-0.22876617
118	0x3d7c2918	0.061562628
119	0xbe8a4e4a	-0.27012855
120	0xbe319884	-0.17343336
121	0x3eb7ecc7	0.35922834
122	0xbe4e46e1	-0.20144226
123	0xbe6f958d	-0.23396893
124	0xbe5712b9	-0.21003236
125	0xbe74b330	-0.2389648
126	0xbe18167d	-0.14852329
127	0xbe09caa2	-0.13456205
128	0xbdee9131	-0.11648787
129	0x3e41cbe5	0.18925436
130	0xbc9527fa	-0.018207539
131	0xbba55fcb	-0.00504682
132	0xbe8ff3ab	-0.2811559
133	0xbe448edc	-0.19195122
134	0xbe0af8dd	-0.13571496
135	0xbdd915fa	-0.10599895
136	0x3d3f5bd0	0.04671842
137	0xbe84ad2a	-0.25913364
138	0x3e8ff34c	0.28115308
139	0x3e9fd4e4	0.3121711
140	0x3ea0a104	0.31372845
141	0x3e418458	0.18898141
142	0x3dbc9f35	0.09210054
143	0x3c327a84	0.010893468
144	0xbe9197ad	-0.28436032
145	0xbdb7dca4	-0.08977631
146	0x3d75df60	0.06002748
147	0xbd882346	-0.06647353
148	0xbb9c1e00	-0.0047643185
149	0x3d7c0ce8	0.061535746
150	0x3be963df	0.0071225013
151	0x3eb7034b	0.357447
152	0x3e51c024	0.20483452
153	0x3e8cd4c0	0.27506065
154	0xbe1bfa9c	-0.15232319
155	0xbd4cb37b	-0.049975853
156	0x3e84a407	0.25906393
157	0x3ce835b7	0.028345926
158	0xbf15f8bc	-0.58582664
159	0xbd107741	-0.03526998
160	0x3cb3a724	0.021930285
161	0x3d943792	0.07237162
162	0x3d324233	0.043520164
163	0x3e97d7ad	0.29656735
164	0x3e1a3013	0.15057401
165	0x3e929072	0.28625828
166	0xbdb2c522	-0.08729006
167	0xbd7ac3f4	-0.06122203
168	0xbdd2843a	-0.102791265
169	0xbe29f346	-0.16596708
170	0xbe90fdd5	-0.28318658
171	0xbe3153d2	-0.17317131
172	0xbe67c443	-0.22633462
173	0x3d6b4e98	0.057448
174	0x3d787029	0.06065384
175	0x3e8a620e	0.27027935
176	0x3e93fed1	0.28905347
177	0xbe266545	-0.16249569
178	0x3e6fc1b1	0.23413731
179	0xbdc43517	-0.095804386
180	0x3bb16416	0.0054135425
181	0x3c62f65d	0.013852683
182	0x3d6d4e74	0.057936147
183	0x3e953070	0.29138517
184	0xbcc9e2e4	-0.024644323
185	0x3e5fbcf1	0.21849419
186	0x3d6c0d83	0.057630073
187	0x3e83d48e	0.25748104
188	0x3ec4bdcf	0.38426062
189	0x3e684ad3	0.22684793
190	0x3e57b93f	0.2106676
191	0x3e9333fa	0.28750592
192	0x3e21ce3b	0.15801327
193	0x3e3ae0c7	0.18249808
194	0xbe0b731c	-0.1361813
195	0xbc09377a	-0.008375043
196	0x3e735525	0.23762949
197	0x3e847d0d	0.25876656
198	0xbe62c8f4	-0.2214697
199	0x3df33e1d	0.118770815
200	0x3eab8562	0.335002
201	0x3e152d7a	0.14568129
202	0xbe3932df	-0.18085812
203	0x3c74dbf1	0.014945016
204	0xbbfceeb2	-0.0077188844
205	0x3ec64745	0.3872625
206	0x3b87b69c	0.004141642
207	0x3e7b9691	0.24569155
208	0x3e1b9da7	0.15196858
209	0xbe27df2b	-0.16393726
210	0xbd3ee213	-0.04660232
211	0xbcf5f34c	-0.03002324
212	0x3da5c9ed	0.08095155
213	0x3e4361b3	0.19080238
214	0x3ea15a4c	0.31514204
215	0xbc11ead2	-0.008906083
216	0x3db6ac05	0.08919529
217	0xbdb5e820	-0.08882165
218	0x3b39fd0c	0.0028379587
219	0xbe718f86	-0.23589906
220	0xbe3934d8	-0.18086565
221	0xbe476cda	-0.19475117
222	0x3ecf9ed0	0.40550852
223	0x3e91651d	0.28397456
224	0x3e9fd394	0.3121611
225	0x3e52e1e5	0.20593984
226	0xbd84a5ca	-0.06476934
227	0xbb5219b3	-0.0032058775
228	0x3ecb88b1	0.39752725
229	0x3dfe070c	0.12403688
230	0x3ecc1e4a	0.3986686
231	0x3e62ee1c	0.22161144
232	0x3e819ebb	0.25316414
233	0x3e54694b	0.20743291
234	0xbea60678	-0.3242681
235	0x3e4f62cb	0.2025253
236	0xbddfc801	-0.109268196
237	0xbcc8d440	-0.024515271
238	0xbe97c418	-0.29641795
239	0x3e53a597	0.20668636
240	0x3ed3ba65	0.41353145
241	0xbdfa847f	-0.12232303
242	0xbab75738	-0.0013987785
243	0x3d98095d	0.07423661
244	0x3e89033a	0.26760274
245	0x3debe62a	0.1151851
246	0x3eb26404	0.3484193
247	0x3e6315c3	0.2217627
248	0xbe102362	-0.14075997
249	0x3d0db7a2	0.034598954
250	0x3e08e473	0.13368396
251	0x3d5949d9	0.053048942
252	0xbe1eb88c	-0.15500087
253	0xbe5d1f9e	-0.21594092
254	0xbe83c227	-0.25734064
255	0xbe8ac219	-0.2710121

arith.constant3 f4 [64]
0	0x3ed3e278	0.4138372
1	0xbcc8a1a8	-0.024491146
2	0x3e8500fa	0.25977308
3	0x3eee0801	0.46490481
4	0x3eb4361a	0.35197526
5	0x00000000	0.0
6	0x3ecc3254	0.39882147
7	0x00000000	0.0
8	0x00000000	0.0
9	0xbc0a7f48	-0.008453198
10	0x3ee1d66e	0.4410891
11	0xbd4527ac	-0.048133537
12	0xbd04000b	-0.032226603
13	0xbc8b4682	-0.017001394
14	0x00000000	0.0
15	0x00000000	0.0
16	0x3ed92b82	0.42416006
17	0x3ed1a1b8	0.40943694
18	0xbd5ad444	-0.05342509
19	0xbcde7118	-0.027153537
20	0x3efe2f6e	0.4964556
21	0xbcb07a02	-0.021542553
22	0x00000000	0.0
23	0x3ece5594	0.40299666
24	0x00000000	0.0
25	0x3ed2e466	0.4118988
26	0x3ea0e4a5	0.31424442
27	0x3ed5e813	0.4177862
28	0x00000000	0.0
29	0x3ee4c274	0.44679606
30	0x3ee480ae	0.44629425
31	0x3eb7fd5f	0.35935494
32	0x3edf5cba	0.43625432
33	0x3eb5c24f	0.35499808
34	0x3ed9e6de	0.4255895
35	0x3ed67f5e	0.41894048
36	0xbc72461e	-0.014787225
37	0x3edb362f	0.42814776
38	0x3eb16860	0.34649944
39	0xbd3b7caa	-0.045773186
40	0x3ed599be	0.41718858
41	0x3ecbe541	0.39823344
42	0x00000000	0.0
43	0x3ee4d582	0.44694144
44	0x3d408ed9	0.04701123
45	0x3ee3af25	0.44469562
46	0xbd494335	-0.04913636
47	0x00000000	0.0
48	0x3ed2b779	0.41155604
49	0x3e9afcff	0.30271146
50	0xbc8b2b5a	-0.016988445
51	0xbcd58861	-0.026066007
52	0xbcee5f7a	-0.029098261
53	0x3ef3b5e5	0.47599712
54	0x3ee4b58c	0.4466976
55	0x00000000	0.0
56	0x3ece731f	0.40322205
57	0x00000000	0.0
58	0x00000000	0.0
59	0x3ed17230	0.4090743
60	0x3ebefe72	0.373035
61	0x3ee35b7a	0.4440573
62	0x3ee9ac95	0.45639482
63	0x3edcbe01	0.4311371

arith.constant4 f4 [32]
0	0x3e99a112	0.300057
1	0xbcc66f46	-0.024222981
2	0xbce66f77	-0.028129322
3	0xbcc028fd	-0.023457045
4	0xbd037013	-0.032089304
5	0x3e89295a	0.2678936
6	0x00000000	0.0
7	0x3ec59a94	0.38594496
8	0x3e931c8a	0.2873271
9	0xbbab55b9	-0.005228725
10	0x3e8c795b	0.27436337
11	0xbc71851f	-0.014741211
12	0x00000000	0.0
13	0xbc8ab565	-0.016932199
14	0x3e9010fc	0.28137958
15	0xbe459a10	-0.19297051
16	0x3e944e5d	0.28966036
17	0x00000000	0.0
18	0x3eab4257	0.3344905
19	0xbc7e3acf	-0.015516951
20	0x3ed00c93	0.40634593
21	0xbcdd828e	-0.027039792
22	0xbcb72848	-0.022358075
23	0xbd260373	-0.040530633
24	0xbbb626ff	-0.005558848
25	0x3ed10f4c	0.40831983
26	0xbcf2e5dd	-0.029650623
27	0x3ea55bbe	0.32296556
28	0x3ea81f18	0.32836223
29	0x3ea27ed6	0.31737393
30	0xbcef0381	-0.029176475
31	0xbc50c422	-0.012742074

arith.constant5 f4 [8]
0	0x3e216652	0.15761688
1	0x3b3dc167	0.0028954388
2	0xbd8e76a2	-0.06956221
3	0x3e6b4e8a	0.22979179
4	0xbd797911	-0.060906474
5	0xbdf7fcc2	-0.121087566
6	0xbdcef46b	-0.10105213
7	0xbc18345b	-0.009289826

arith.constant6 f4 [1, 32]
0	0x3f24692f	0.64223
1	0xbe8297ec	-0.25506532
2	0xbe2f523e	-0.17121217
3	0xbe8dda77	-0.27705738
4	0xbe87e304	-0.26540387
5	0x3f37d1cb	0.71804494
6	0x3d4f37f8	0.050590485
7	0x3e7c0531	0.24611355
8	0x3f00abfe	0.5026244
9	0xbeae4eff	-0.34044644
10	0x3f2934f3	0.6609642
11	0xbe09c109	-0.13452543
12	0xbdf3922c	-0.118931144
13	0xbebad6e6	-0.3649208
14	0x3f19eebb	0.601299
15	0x3e07ff04	0.13280874
16	0x3efd42ab	0.49464926
17	0x3ec819d8	0.39082217
18	0x3ed3377c	0.4125327
19	0xbebd4f7c	-0.36974704
20	0x3e70eabc	0.23527044
21	0xbdb3b8ad	-0.087754585
22	0xbe57e5bf	-0.21083735
23	0xbebbba20	-0.3666544
24	0xbeaf6fe8	-0.34265065
25	0x3e52e0a0	0.205935
26	0xbebc860f	-0.3682103
27	0x3ef2ba87	0.47407934
28	0x3ed8cd3e	0.42344087
29	0x3f232603	0.63729876
30	0xbe81c7b0	-0.25347662
31	0xbde44d97	-0.111476116

arith.constant7 f4 [1, 32]
0	0x3e283449	0.16426195
1	0x3dc39ae6	0.09551029
2	0x3dd19275	0.102330126
3	0x3eaae96f	0.3338122
4	0xbe42a45b	-0.19008009
5	0x3eda4e3c	0.42637813
6	0xbec99a3e	-0.3937549
7	0x3e8c3a62	0.27388293
8	0x3f0b335d	0.5437525
9	0x3d6b8630	0.057501018
10	0x3e061195	0.13092645
11	0xbe9c1acd	-0.30489197
12	0xbeb8b7e1	-0.36077788
13	0xbeb4d3fb	-0.35317978
14	0xbd8c5fda	-0.0685422
15	0xbeba5624	-0.36393845
16	0x3f09bacc	0.53800654
17	0x3d6f8a98	0.058481783
18	0x3e58c406	0.21168527
19	0xbeb07808	-0.34466577
20	0x3ee97722	0.45598704
21	0xbd58143f	-0.052753683
22	0xbeb835c7	-0.3597853
23	0x3ed6a141	0.41919902
24	0x3dd274af	0.10276162
25	0x3ebb13cf	0.3653855
26	0x3ec0c6d7	0.37651703
27	0xbdf0d459	-0.11759252
28	0x3ef711dd	0.48255816
29	0x3d94fe42	0.07275058
30	0xbd9b185a	-0.07573004
31	0xbc508bef	-0.012728675

arith.constant8 f4 [8, 32]
0	0xbde4b59e	-0.11167453
1	0xbecc885e	-0.3994779
2	0xbe8ce7ef	-0.275207
3	0xbe4176e3	-0.18893008
4	0x3decff65	0.1157215
5	0x3d37561f	0.044759866
6	0x3c94f090	0.018181115
7	0x3e15e511	0.14638163
8	0xbe0c0d47	-0.1367694
9	0xbeb23bb9	-0.3481119
10	0xbdb69501	-0.08915139
11	0x3e9dfdb8	0.30857635
12	0x3e9a08d4	0.3008486
13	0x3d536940	0.051614046
14	0xbe8e3c17	-0.2778022
15	0xbe23ec74	-0.16008168
16	0xbd859abe	-0.06523655
17	0xbea37eab	-0.31932577
18	0x3e1ba20e	0.15198538
19	0xbec55639	-0.38542345
20	0x3ce806d0	0.028323561
21	0xbe1c8e12	-0.1528857
22	0x3c47f8dd	0.01220533
23	0xbb90f827	-0.0044241133
24	0xbc99a56f	-0.018755643
25	0x3ea5c7b7	0.32378933
26	0xbe9fec53	-0.3123499
27	0x3e911356	0.28335065
28	0xbdc09a86	-0.09404473
29	0xbe274a1c	-0.16336864
30	0x3e47b678	0.195032
31	0x3e29e45a	0.16591015
32	0x3c185596	0.009297749
33	0x3d88247a	0.06647582
34	0x3e5920d5	0.2120393
35	0xbeb0cb3f	-0.34530064
36	0x3ec36bb8	0.3816812
37	0x3e590ae9	0.21195568
38	0x3ea655b6	0.32487267
39	0xbe963da3	-0.293439
40	0x3d597594	0.053090647
41	0x3d19cb1d	0.03754722
42	0xbe167143	-0.14691643
43	0x3d8c7b15	0.068594135
44	0x3c9c4340	0.019075036
45	0xbd36746d	-0.044544626
46	0xbcdb45a7	-0.026766611
47	0x3ea18dc3	0.31553468
48	0x3ea2f5d8	0.3182819
49	0xbebeb965	-0.3725082
50	0xbe964c68	-0.29355168
51	0xbe645709	-0.22298826
52	0x3e5d742e	0.2162635
53	0x3eb895ed	0.36051884
54	0x3eb2676b	0.34844527
55	0xbe9b5fe1	-0.30346587
56	0x3e967247	0.29384062
57	0x3e743454	0.23848087
58	0xbda90088	-0.082520545
59	0xbc84ba8c	-0.016202234
60	0xbd3cb420	-0.046070218
61	0xbe8c3641	-0.27385142
62	0xbe0d520f	-0.13800834
63	0x3d46ff13	0.0485831
64	0xbea36073	-0.31909522
65	0xbdc129e2	-0.09431817
66	0xbdd2818e	-0.10278617
67	0xbe41a945	-0.18912227
68	0xbe8a0018	-0.26953197
69	0xbe29bc3d	-0.16575713
70	0x3e8aebe6	0.271331
71	0x3e98cab5	0.29842153
72	0xbeb2d970	-0.34931517
73	0xbe1bbebb	-0.15209477
74	0x3e0bca69	0.13651432
75	0x3e563218	0.20917547
76	0x3e5bace0	0.21452665
77	0xbdf6e66d	-0.12055669
78	0xbe0db00a	-0.13836685
79	0x3e880013	0.26562557
80	0xbdf0b261	-0.11752773
81	0x3df70448	0.120613635
82	0x3e1755bc	0.14778799
83	0x3dd97823	0.106186174
84	0x3e0a90d0	0.13531804
85	0xbe03014f	-0.12793468
86	0x3e43e62c	0.19130772
87	0xbea7d98c	-0.32783163
88	0x3e5b462c	0.21413487
89	0x3c9fdaee	0.019513573
90	0xbe473cdb	-0.19456808
91	0x3d92d5c1	0.071696766
92	0x3ec0450d	0.37552682
93	0x3df3b552	0.118998185
94	0x3cd67408	0.026178375
95	0xbcdd621d	-0.027024323
96	0x3ce3f44d	0.027826453
97	0x3d4c4288	0.049868137
98	0xbe6b7b24	-0.22996193
99	0x3e607f9a	0.21923676
100	0x3eb16ad3	0.34651813
101	0x3e9acd20	0.30234623
102	0xbdd15280	-0.10220814
103	0xbed2e57e	-0.41190714
104	0x3cedb5a2	0.029017273
105	0xbe75ac9d	-0.23991628
106	0xbe3de302	-0.18543628
107	0x3ebee127	0.37281153
108	0x3e31a930	0.17349696
109	0x3e27f336	0.16401371
110	0xbe20f1fc	-0.1571731
111	0xbdf299d3	-0.11845746
112	0x3e90b6f4	0.28264582
113	0xbe530422	-0.20607045
114	0x3e3c3bc9	0.18382181
115	0xbe84ddb9	-0.2595041
116	0x3e5c9fdf	0.21545361
117	0xbdd20ca6	-0.10256319
118	0xbcae94e1	-0.021311225
119	0xbd3256ca	-0.0435398
120	0x3c141203	0.009037497
121	0x3e8db17b	0.2767447
122	0xbea07d3a	-0.3134554
123	0xbd80eaea	-0.06294806
124	0xbe96434f	-0.29348227
125	0xbdc0ed5d	-0.094202735
126	0x3e8f2cf2	0.27963978
127	0xbe0fde9e	-0.14049765
128	0xbce1c831	-0.027561279
129	0xbe9b2fbb	-0.30309853
130	0x3e2ac30d	0.16675968
131	0xbc6da45b	-0.014504517
132	0xbe3bd65d	-0.18343492
133	0x3e39edbd	0.18157096
134	0xbeb234ce	-0.34805912
135	0x3eda30e1	0.42615417
136	0x3e381763	0.17977671
137	0xbe26b41d	-0.16279645
138	0x3e2373ea	0.15962186
139	0xbe7ba85f	-0.24575947
140	0xbe22e98b	-0.15909402
141	0x3e14a5b9	0.14516343
142	0xbd0db57f	-0.034596916
143	0x3df5aada	0.11995478
144	0xbe8884f7	-0.26663944
145	0xbe831f7c	-0.25609958
146	0xbeafd22e	-0.34340042
147	0x3d804ac2	0.06264259
148	0xbead34fc	-0.33829486
149	0x3e6c15b3	0.23055153
150	0xbe6de1ef	-0.23230718
151	0x3e86c719	0.26323774
152	0x3e6914f9	0.22761907
153	0x3dcc6642	0.09980442
154	0xbd8beba9	-0.06832058
155	0xbe6bc819	-0.2302555
156	0x3e1d6d07	0.15373622
157	0x3db05bbb	0.08611246
158	0x3e39f393	0.18159322
159	0xbbb461bc	-0.005504815
160	0x3d856b4e	0.06514607
161	0x3c93a641	0.018023612
162	0x3e8b84d6	0.27249783
163	0x3e0a35c0	0.13497066
164	0xbd6bd3ca	-0.057575025
165	0xbe88e251	-0.26735166
166	0x3eac07de	0.33599752
167	0xbdcebcdf	-0.10094618
168	0x3e54e996	0.20792231
169	0x3ec15b72	0.3776508
170	0xbd788c23	-0.06068052
171	0x3e96f696	0.29485005
172	0x3e8ffb86	0.28121585
173	0x3ebc686a	0.36798412
174	0x3dd7d48f	0.10538589
175	0xbe8475d7	-0.25871155
176	0x3e5a101b	0.21295206
177	0x3c708d40	0.014682114
178	0x3dd9750d	0.10618029
179	0xbdbc3c8e	-0.091912374
180	0xbddf6de7	-0.10909634
181	0xbec11074	-0.37707865
182	0xbd73317a	-0.059373356
183	0xbe2c1452	-0.16804627
184	0x3daa6a47	0.08321052
185	0x3d1f7e2b	0.038938683
186	0x3eae8a17	0.3408973
187	0x3e250fa3	0.16119246
188	0xbeea4a70	-0.45759916
189	0x3e737a09	0.23777021
190	0xbdcf12e5	-0.10111026
191	0xbebc6893	-0.36798534
192	0x3e332aff	0.1749687
193	0x3d43168e	0.04762893
194	0xbcee05cf	-0.029055504
195	0x3eabf9d5	0.33589044
196	0x3ea353bc	0.31899822
197	0x3e080493	0.13282995
198	0xbe3a0c67	-0.18168794
199	0xbe3e2c88	-0.18571675
200	0xbde52801	-0.11189271
201	0xbdc001ef	-0.09375369
202	0xbdc1aca5	-0.094567575
203	0x3eb40d7f	0.35166547
204	0x3e33a174	0.17542058
205	0x3e4f6495	0.20253213
206	0xbe36fb90	-0.17869401
207	0x3e86ca39	0.2632616
208	0xbd93a90b	-0.07209977
209	0x3d50ba18	0.050958723
210	0xbe9d99f9	-0.30781534
211	0x3ea36742	0.31914717
212	0x3e812c32	0.2522903
213	0xbe12c78b	-0.14333932
214	0xbea480ab	-0.32129416
215	0x3e190628	0.14943755
216	0xbe5e929b	-0.21735613
217	0x3ec61f59	0.3869579
218	0xbdaadfcb	-0.08343466
219	0xbe2484c7	-0.16066276
220	0x3e8a9c57	0.27072403
221	0x3de5e54c	0.112253755
222	0x3d99f3a7	0.07517176
223	0xbe8b82eb	-0.2724832
224	0xbb19c283	-0.0023461885
225	0x3dcfb399	0.101416774
226	0x3e4d279f	0.20034645
227	0xbdda1b67	-0.10649758
228	0xbe660c7f	-0.22465704
229	0x3e03ba3e	0.12864015
230	0xbe8e5e75	-0.2780644
231	0xbece07c8	-0.40240312
232	0x3da8ab1f	0.08235764
233	0x3e71ea11	0.23624445
234	0x3e4f2d56	0.20232138
235	0xbec64a65	-0.38728634
236	0xbc0497a0	-0.008092791
237	0x3cc9b449	0.0246221
238	0x3e8880ee	0.26660866
239	0xbe838041	-0.25683787
240	0xbe51d69b	-0.20492022
241	0xbe5f8840	-0.21829319
242	0xbe53f842	-0.20700172
243	0x3e3f52ce	0.18683931
244	0xbeec86ca	-0.46196586
245	0xbe649f1b	-0.22326319
246	0x3e91cf36	0.28478402
247	0x3e059c78	0.1304797
248	0xbeafe3ee	-0.34353584
249	0x3e2d91c9	0.16950144
250	0x3e3c2a88	0.183756
251	0x3d0e35ab	0.03471915
252	0x3e9e16f2	0.3087688
253	0xbd3f1678	-0.046652287
254	0xbea231fe	-0.31678766
255	0x3d03934a	0.032122888

tfl.pseudo_qconst i1 [32, 64]
0	0x28	40
1	0x0e	14
2	0x1f	31
3	0x5d	93
4	0x01	1
5	0xf4	-12
6	0x17	23
7	0x1e	30
8	0xd6	-42
9	0xf3	-13
10	0x38	56
11	0xee	-18
12	0xeb	-21
13	0x19	25
14	0xfc	-4
15	0x21	33
16	0x2b	43
17	0x28	40
18	0x0f	15
19	0xe3	-29
20	0x30	48
21	0xe8	-24
22	0xea	-22
23	0x47	71
24	0xf4	-12
25	0x01	1
26	0x13	19
27	0x4b	75
28	0x18	24
29	0x50	80
30	0x0f	15
31	0x21	33
32	0x4b	75
33	0x10	16
34	0x2e	46
35	0x53	83
36	0xda	-38
37	0x13	19
38	0x4a	74
39	0xe6	-26
40	0x17	23
41	0x39	57
42	0x14	20
43	0x27	39
44	0x02	2
45	0x7f	127
46	0xdc	-36
47	0xdd	-35
48	0x23	35
49	0x1a	26
50	0x12	18
51	0xfb	-5
52	0x1c	28
53	0x3a	58
54	0x59	89
55	0xd7	-41
56	0x32	50
57	0xd6	-42
58	0xd5	-43
59	0x33	51
60	0x4c	76
61	0x06	6
62	0x06	6
63	0x43	67
64	0xcd	-51
65	0x0b	11
66	0x11	17
67	0x4d	77
68	0xd5	-43
69	0xa6	-90
70	0x53	83
71	0x72	114
72	0x8f	-113
73	0x30	48
74	0xc4	-60
75	0xae	-82
76	0x95	-107
77	0xe9	-23
78	0xec	-20
79	0x12	18
80	0xf0	-16
81	0x4f	79
82	0x51	81
83	0x1b	27
84	0xcb	-53
85	0xf3	-13
86	0x6c	108
87	0xf5	-11
88	0x96	-106
89	0xba	-70
90	0xea	-22
91	0xe4	-28
92	0x9d	-99
93	0x4e	78
94	0x9a	-102
95	0x52	82
96	0xeb	-21
97	0x12	18
98	0xb4	-76
99	0x4c	76
100	0x15	21
101	0x5b	91
102	0x82	-126
103	0x8f	-113
104	0x84	-124
105	0xa7	-89
106	0x9a	-102
107	0x9a	-102
108	0x1e	30
109	0xa4	-92
110	0x31	49
111	0x24	36
112	0x38	56
113	0x60	96
114	0x75	117
115	0x5c	92
116	0xb9	-71
117	0x81	-127
118	0x73	115
119	0x57	87
120	0x62	98
121	0x5d	93
122	0xde	-34
123	0xd3	-45
124	0x6b	107
125	0xa4	-92
126	0x8e	-114
127	0xfc	-4
128	0xe2	-30
129	0xf4	-12
130	0xc6	-58
131	0x6e	110
132	0x3f	63
133	0x2e	46
134	0x40	64
135	0x1f	31
136	0x90	-112
137	0x0f	15
138	0xcc	-52
139	0x44	68
140	0xf7	-9
141	0xf2	-14
142	0xc2	-62
143	0xce	-50
144	0x4c	76
145	0xcd	-51
146	0xac	-84
147	0x95	-107
148	0x02	2
149	0xdd	-35
150	0xee	-18
151	0xae	-82
152	0xc2	-62
153	0xe0	-32
154	0x53	83
155	0x81	-127
156	0x42	66
157	0xdf	-33
158	0xf0	-16
159	0x39	57
160	0x45	69
161	0xdf	-33
162	0x08	8
163	0xfa	-6
164	0xc2	-62
165	0x9c	-100
166	0xe5	-27
167	0x15	21
168	0x89	-119
169	0x8d	-115
170	0x1f	31
171	0x54	84
172	0x0a	10
173	0x20	32
174	0xc0	-64
175	0x93	-109
176	0xa0	-96
177	0xe4	-28
178	0xfe	-2
179	0x26	38
180	0x28	40
181	0x99	-103
182	0xe5	-27
183	0x20	32
184	0x08	8
185	0x2c	44
186	0x2e	46
187	0x59	89
188	0xf5	-11
189	0x10	16
190	0x44	68
191	0x55	85
192	0x60	96
193	0x54	84
194	0x87	-121
195	0x97	-105
196	0x72	114
197	0x09	9
198	0xee	-18
199	0xfc	-4
200	0xe8	-24
201	0xfa	-6
202	0x0e	14
203	0x9c	-100
204	0xd3	-45
205	0xa1	-95
206	0x1b	27
207	0x7c	124
208	0x30	48
209	0x23	35
210	0x70	112
211	0xe0	-32
212	0x99	-103
213	0x31	49
214	0x8a	-118
215	0x59	89
216	0x27	39
217	0xc2	-62
218	0x15	21
219	0xda	-38
220	0xc4	-60
221	0x04	4
222	0xe9	-23
223	0x22	34
224	0xa5	-91
225	0xa8	-88
226	0xdf	-33
227	0x20	32
228	0x66	102
229	0xd0	-48
230	0x19	25
231	0x71	113
232	0x86	-122
233	0xab	-85
234	0x53	83
235	0x90	-112
236	0xa8	-88
237	0xa3	-93
238	0x94	-108
239	0x20	32
240	0x69	105
241	0x32	50
242	0x07	7
243	0x99	-103
244	0x4b	75
245	0x77	119
246	0x27	39
247	0x68	104
248	0xbb	-69
249	0x47	71
250	0x8a	-118
251	0x06	6
252	0xbc	-68
253	0x2f	47
254	0x88	-120
255	0x81	-127
